examples/01/model.onnx (onnx, 791 bytes, 4 tensors)

fc1.weight f4 [8, 4]
000000 48 01 be 3d 90 7d 84 3d b8 ff 03 3e 70 ce 07 3d
       0.09277588 0.06469262 0.12890518 0.03315586
000010 82 fa 8a 3e 00 db 81 3d f8 3c 11 be 34 2e 8e 3e
       0.27144247 0.06340599 -0.14183414 0.27769625
000020 a8 4e 60 be d0 3a d6 be a8 25 e0 3e 80 72 74 bc
       -0.21905005 -0.41841745 0.4377873 -0.014919877
000030 80 7e c2 bb 34 e5 a9 be d4 2e 6f 3e d0 45 5f be
       -0.00593549 -0.3318268 0.23357707 -0.21803975
000040 f8 11 a9 3d c0 cc 8e 3e 0c 4a 21 be fa 37 bb be
       0.082553804 0.27890587 -0.15750903 -0.36566144
000050 cc 1c b2 3e a0 2a fa 3e 0e a9 fe 3e 80 bc 19 3d
       0.34787595 0.48860645 0.49738353 0.037533283
000060 88 d9 bd bd cc f0 f4 3e 10 02 de 3e 88 c4 3d be
       -0.092700064 0.47839963 0.4336095 -0.18532002
000070 80 63 e7 bd 00 de 8d bb fc 4a 11 be 8a 7d dd 3e
       -0.11298275 -0.004329443 -0.1418876 0.4325984

fc1.bias f4 [8]
000000 a4 ff ac 3e e8 2a fa 3d 2a b9 ba 3e c4 ee e2 be
       0.33788788 0.12215215 0.36469394 -0.4432279
000010 d2 b4 d2 3e 70 80 8d bd 14 94 d0 be 1a 43 b9 3e
       0.4115358 -0.06909263 -0.40737975 0.36184007

fc2.weight f4 [4, 8]
000000 63 6b 94 bd 98 61 58 be 9e 27 97 3e 6a b8 8a be
       -0.07247045 -0.21130979 0.29522413 -0.27093822
000010 ba 16 3b 3d 85 65 51 be 1d 4f 92 be f8 b6 90 3e
       0.04567597 -0.20448883 -0.28575984 0.28264594
000020 20 8c a4 3e 59 db 5d 3c d4 be a0 3d 95 e3 86 3e
       0.32138157 0.013541066 0.078488976 0.26345506
000030 59 9c 90 3e 7a 2e 9f 3e 16 cf 6d 3e c7 a3 a5 bc
       0.28244284 0.31090146 0.23223528 -0.020219697
000040 de 8c 2d be 78 fc 24 3e 39 5e a4 be dc 8d 95 3e
       -0.16948268 0.16111934 -0.32103136 0.29209793
000050 b0 a8 74 bd 55 d2 a6 bd 8c 9f 93 3e 7b 49 1a be
       -0.059731185 -0.081455864 0.28832662 -0.15067093
000060 6f 9a 88 be f6 a8 fb bd 9e 29 3c 3d f6 c1 67 3e
       -0.26680323 -0.12288086 0.045938127 0.22632584
000070 a5 89 99 be 65 56 e0 bd 4a 5e ac bc 93 87 2f bc
       -0.29987827 -0.109539784 -0.021041054 -0.010713476

fc2.bias f4 [4]
000000 00 b6 2d be 8f b8 88 3e 70 52 83 be 6a 2b 8c 3d
       -0.16963959 0.26703307 -0.25648832 0.06844218
