examples/01/model.onnx (onnx, 3193 bytes, 4 tensors)

fc1.weight f4 [32, 16]
0.18298838 0.20152813 0.17239904 -0.09996757 0.21451965 0.13462538 0.21194193 -0.01983416
0.04659286 0.12979907 -0.02332887 -0.24667957 -0.24290851 -0.23312402 0.12027052 0.21215776
-0.08373633 0.12648663 -0.2133207 -0.12850699 -0.12314996 0.24851683 0.20934966 -0.15681383
-0.04909599 -0.11424714 -3.0606985e-05 0.09201276 -0.0830366 0.21815217 0.0820142 0.18585235
0.037251532 -0.118068606 0.22689372 -0.09471679 -0.23167828 0.22309977 0.18645784 0.0053597093
-0.063446105 0.19117105 -0.13822836 -0.1445525 0.008228034 -0.11047158 0.21280739 -0.033223808
0.23524633 -0.11491954 0.07942352 0.22693041 -0.024417847 0.22377172 0.13413289 -0.18320802
-0.18895715 0.22440037 0.14393282 -0.02637428 0.12776873 -0.23161891 0.081464946 0.0023002028
0.23604491 0.23841786 0.1599384 0.08946866 0.056153744 -0.22709155 0.18648875 -0.02410084
0.08235517 -0.23143926 0.1435411 0.20219645 -0.14090183 -0.21817473 0.23300025 0.04902333
0.19915232 -0.07476333 -0.16940853 -0.047569305 -0.045128524 0.06005338 -0.13831455 -0.04623559
0.043750167 -0.08891219 0.1932593 -0.1987794 0.13991418 0.20342216 -0.16700867 0.08766729
-0.17157245 -0.18819275 -0.14521644 -0.16462493 -0.24035719 -0.16959968 -0.12415755 -0.029637009
0.22904012 0.20102826 -0.20208597 0.24147782 0.18004829 -0.109868854 -0.24035421 0.056946337
0.19264084 -0.22276074 0.14481083 0.176476 -0.23691428 -0.2466073 0.12725094 0.014594108
0.16430566 -0.18112546 -0.07005522 -0.17175072 0.101946235 -0.048870355 -0.06898719 -0.034626216
0.030566275 -0.07626915 0.08325523 0.13579601 0.1605506 0.18888018 0.1509721 -0.16759017
-0.17524445 0.016216695 -0.0993765 -0.08829364 -0.059734106 0.101569355 0.009741098 -0.1107243
0.030675203 -0.07950324 -0.03956607 0.22041771 0.2075882 -0.22880447 0.002381593 -0.01990375
0.21222714 0.12808919 0.21840978 -0.0373514 0.041947246 0.16053662 -0.16240051 0.17164719
0.22695178 0.19591969 0.0063297153 0.2224811 -0.20160529 -0.042112768 -0.017307162 -0.055458367
-0.13405183 -0.13188773 0.09467858 -0.13962433 0.16184449 0.19165006 0.1617499 -0.10222909
-0.17425114 -0.24706572 -0.02514574 -0.24799058 0.07996726 0.067261845 -0.24150395 0.17740268
-0.119995624 0.06416839 0.11776832 0.16949856 -0.08563742 -0.0047091246 -0.039824396 -0.19353563
0.10591388 -0.24412417 -0.10561338 -0.17655715 0.05083239 0.13188344 0.17003587 0.047962993
-0.081130356 -0.02571854 0.18069386 0.24500862 -0.23464271 -0.13107443 0.101742685 -0.011555791
-0.0918802 0.23285076 -0.07242936 -0.0035209954 0.025253266 0.083731145 -0.14614815 -0.08421087
-0.18096605 -0.116460025 0.0387215 0.14812145 0.11178413 0.24663237 -0.112443805 0.059432685
0.17694756 -0.1732432 -0.05365908 -0.20478326 0.17537394 0.016150028 -0.0055463016 -0.037391067
0.10841352 0.08571464 0.18806079 0.13803726 -0.18317139 -0.07877013 -0.23328939 -0.09535372
-0.028995901 0.05559072 -0.039839536 -0.0037320852 0.1782059 -0.23254895 -0.023665756 0.060856193
-0.014041662 -0.1663948 -0.22623229 0.14828566 0.045780748 0.18569082 -0.01664269 -0.073809266
00000000: 4e61 3b3e 645d 4e3e 6089 303e ccbb ccbd
00000010: 0aab 5b3e 3cdb 093e 4e07 593e 407b a2bc
00000020: 28d8 3e3d 0cea 043e 301c bfbc 9299 7cbe
00000030: 02bd 78be 10b8 6ebe 6450 f63d e23f 593e
00000040: f47d abbd b685 013e be70 5abe 5697 03be
00000050: 0c36 fcbd 327b 7e3e c25f 563e ce93 20be
00000060: e018 49bd 68fa e9bd 0060 00b8 3071 bc3d
00000070: 180f aabd 4863 5f3e 10f7 a73d 1450 3e3e
00000080: 1095 183d f4cd f1bd d456 683e e0fa c1bd
00000090: 123d 6dbe 4474 643e ceee 3e3e 80a0 af3b
000000a0: 08f0 81bd 58c2 433e bc8b 0dbe 9205 14be
000000b0: e0ce 063c ec3e e2bd 2eea 593e b015 08bd
000000c0: 6ae4 703e f05a ebbd cca8 a23d 7260 683e
000000d0: f007 c8bc 6a24 653e 225a 093e e29a 3bbe
000000e0: fc7d 41be 36c9 653e 2063 133e e00e d8bc
000000f0: ced5 023e 822d 6dbe 18d7 a63d 00bf 163b
00000100: c2b5 713e d023 743e e4c6 233e 583b b73d
00000110: 7801 663d b08a 68be e8f6 3e3e 206f c5bc
00000120: d4a9 a83d 6afe 6cbe 70fc 123e 960c 4f3e
00000130: 9248 10be 3269 5fbe 9e97 6e3e b0cc 483d
00000140: 96ee 4b3e 841d 99bd 6e79 2dbe 08d8 42bd
00000150: b0d8 38bd 88fa 753d 54a2 0dbe 8861 3dbd
00000160: 6033 333d 9817 b6bd c4e5 453e d48c 4bbe
00000170: aa45 0f3e e64d 503e 5204 2bbe e88a b33d
00000180: b0b0 2fbe 9ab5 40be 9eb3 14be 7093 28be
00000190: 3220 76be 8aab 2dbe 5046 febd 50c9 f2bc
000001a0: 7e89 6a3e 5ada 4d3e a0ef 4ebe f645 773e
000001b0: 945e 383e ec02 e1bd 6a1f 76be 9040 693d
000001c0: a443 453e 641b 64be 4a49 143e 20b6 343e
000001d0: a899 72be a086 7cbe 124e 023e 201c 6f3c
000001e0: be3f 283e f478 39be 1c79 8fbd 6cdf 2fbe
000001f0: 30c9 d03d 482c 48bd 2849 8dbd 38d4 0dbd
00000200: 2066 fa3c 0033 9cbd b881 aa3d 1c0e 0b3e
00000210: 6067 243e ce69 413e 6e98 1a3e c29c 2bbe
00000220: 4873 33be e0d8 843c e885 cbbd 4cd3 b4bd
00000230: c0ab 74bd 9803 d03d 2099 1f3c 6cc3 e2bd
00000240: 904a fb3c 98d2 a2bd 0810 22bd 2eb5 613e
00000250: 0092 543e b84b 6abe 8014 1c3b 300d a3bc
00000260: 1252 593e d029 033e d0a6 5f3e c8fd 18bd
00000270: e0d0 2b3d b663 243e 524c 26be 48c4 2f3e
00000280: 0c66 683e 2c9f 483e 8069 cf3b 16d2 633e
00000290: 9e71 4ebe 707e 2cbd c0c7 8dbc 5028 63bd
000002a0: e244 09be 940d 07be d8e6 c13d aef9 0ebe
000002b0: 90ba 253e ea3f 443e c4a1 253e 7c5d d1bd
000002c0: e46e 32be ccfe 7cbe 70fe cdbc 3ef1 7dbe
000002d0: e0c5 a33d 94c0 893d d04c 77be 0ca9 353e
000002e0: 44c0 f5bd b86a 833d 8430 f13d 0891 2d3e
000002f0: ac62 afbd 004f 9abb e81e 23bd 342e 46be
00000300: 60e9 d83d b0fb 79be d44b d8bd 66cb 34be
00000310: a035 503d 740c 073e e21d 2e3e d874 443d
00000320: ac27 a6bd b0af d2bc d007 393e 8ae3 7a3e
00000330: 2e46 70be 6038 06be 785e d03d 8054 3dbc
00000340: b02b bcbd 6e70 6e3e d855 94bd 80c0 66bb
00000350: f0df ce3c 3c7b ab3d dca7 15be c076 acbd
00000360: 2a4f 39be 9882 eebd 709a 1e3d 26ad 173e
00000370: 14ef e43d 328d 7c3e f048 e6bd b06f 733d
00000380: be31 353e aa66 31be a0c9 5bbd b4b2 51be
00000390: 3a95 333e 104d 843c c0bd b5bb 6027 19bd
000003a0: e807 de3d 288b af3d 0293 403e a459 0d3e
000003b0: 4891 3bbe 3c52 a1bd 6ae3 6ebe d048 c3bd
000003c0: d088 edbc 18b3 633d c82e 23bd 0096 74bb
000003d0: 9c7b 363e 5021 6ebe b0de c1bc 5844 793d
000003e0: 000f 66bc 6663 2abe 70a9 67be 32d8 173e
000003f0: 9884 3b3d bc25 3e3e 4056 88bc 5029 97bd

fc1.bias f4 [32]
0.19732252 -0.03968522 -0.105086684 -0.045480043 0.14508143 -0.105205625 -0.12055692 -0.189569
-0.17821437 0.033280045 0.09256402 0.118950576 0.087249756 0.031356484 -0.20604 -0.11970481
-0.115904 0.115075916 0.18780813 -0.19469234 -0.19839323 0.13434228 -0.24908298 0.16980699
-0.038725734 -0.15954608 -0.18272448 -0.23856714 -0.17533484 -0.028886676 0.16473827 -0.20364392
00000000: ea0e 4a3e f88c 22bd b037 d7bd 4849 3abd
00000010: 3a90 143e 0c76 d7bd 8ce6 f6bd 601e 42be
00000020: d47d 36be a850 083d 3492 bd3d 5c9c f33d
00000030: 00b0 b23d a86f 003d 26fc 52be cc27 f5bd
00000040: 145f edbd ecac eb3d c650 403e 6e5d 47be
00000050: 9827 4bbe 0691 093e 9c0f 7fbe e2e1 2d3e
00000060: e09e 1ebd 0c60 23be 201c 3bbe f24a 74be
00000070: fa8a 33be c0a3 ecbc 26b1 283e 0888 50be

fc2.weight f4 [4, 32]
-0.0033576498 0.10386098 0.036397133 -0.03922112 -0.14844713 0.07106778 0.16309589 0.087899126
0.089191265 0.09095164 -0.14038803 -0.06278101 -0.16921397 -0.006777529 0.101364896 -0.018305534
-0.12687297 0.05230607 0.11307548 -0.022855792 0.109910466 0.05586409 0.078979656 -0.06307923
-0.16199145 -0.03916441 -0.13820142 -0.13419476 0.05586141 0.10417611 0.0033779223 0.045098435
-0.05729217 -0.15799493 0.15751408 -0.037645794 -0.040723547 -0.16392468 0.0068455962 -0.084355086
0.03679241 -0.019940348 -0.020319818 0.14884385 -0.011110962 -0.036696985 0.102795064 -0.16751568
-0.07177635 0.13976376 0.16557726 0.117911436 -0.10041027 -0.022609929 0.09522383 -0.103245236
-0.13186817 -0.057073217 -0.0058614886 0.14101902 0.019309768 -0.04629728 0.09376976 0.049454965
-0.1368689 -0.10067662 0.12543209 -0.037898023 0.01326886 -0.078749485 0.1531241 -0.0009679656
0.019512642 -0.02936552 -0.06561297 0.14240353 0.015328134 -0.1334449 0.15938152 -0.11614331
0.09967312 0.10777994 -0.022774618 -0.037278697 -0.06326166 0.059260175 0.006044975 0.16756853
0.023231132 0.17564121 -0.12544362 0.0129018035 -0.112962425 0.085353285 -0.046142496 0.00638255
-0.0920747 -0.04624154 0.06693107 -0.06064468 -0.14591114 -0.07078144 -0.091015086 0.07775933
0.16389593 -0.11725017 0.066856384 -0.08614144 -0.017076153 -0.16366656 -0.058734436 0.113159396
0.043043353 -0.07339355 -0.112254165 0.042889517 -0.08436614 -0.009728082 0.122773305 0.08374425
-0.1506978 -0.14383322 -0.10036149 -0.13138984 0.040210623 0.07844428 -0.002775117 0.16224074
00000000: 040c 5cbb 11b5 d43d 2915 153d 53a6 20bd
00000010: 8602 18be fc8b 913d 9c02 273e 7504 b43d
00000020: e9a9 b63d da44 ba3d e1c1 0fbe 5593 80bd
00000030: 6d46 2dbe 0916 debb 6698 cf3d 7df5 95bc
00000040: fdea 01be e43e 563d 1e94 e73d 123c bbbc
00000050: bd18 e13d bed1 643d 16c0 a13d af2f 81bd
00000060: 16e1 25be dc6a 20bd ac84 0dbe 5a6a 09be
00000070: efce 643d 495a d53d 2260 5d3b 23b9 383d
00000080: 32ab 6abd 6cc9 21be 5f4b 213e 7a32 1abd
00000090: bccd 26bd dfdb 27be 0651 e03b 5cc2 acbd
000000a0: a3b3 163d f159 a3bc bf75 a6bc 866a 183e
000000b0: c10a 36bc 944f 16bd 3886 d23d 3b89 2bbe
000000c0: 7bff 92bd 3b1e 0f3e 168d 293e 8d7b f13d
000000d0: e6a3 cdbd 7538 b9bc b604 c33d 3d72 d3bd
000000e0: 7308 07be 9bc5 69bd bb11 c0bb 4a67 103e
000000f0: 852f 9e3c 37a2 3dbd 5c0a c03d 4a91 4a3d
00000100: 5c27 0cbe 8b2f cebd 4571 003e f53a 1bbd
00000110: a265 593c 6947 a1bd 90cc 1c3e 12bf 7dba
00000120: fad8 9f3c f68f f0bc 1860 86bd 3bd2 113e
00000130: db22 7b3c c8a5 08be e934 233e 8bdc edbd
00000140: 6c21 cc3d bbbb dc3d d691 babc 8cb1 18bd
00000150: 548f 81bd ccba 723d ed14 c63b 1697 2b3e
00000160: 374f be3c 4adb 333e 4b74 00be 1662 533c
00000170: d858 e7bd b4cd ae3d eaff 3cbd b624 d13b
00000180: a991 bcbd c567 3dbd 2813 893d 8e66 78bd
00000190: bb69 15be dcf5 90bd 1e66 babd 4940 9f3d
000001a0: 56d4 273e db20 f0bd 00ec 883d ec6a b0bd
000001b0: 4ae3 8bbc 3598 27be 8593 70bd 1dc0 e73d
000001c0: 3a4e 303d 5c4f 96bd 83e5 e5bd ebac 2f3d
000001d0: 28c8 acbd 8962 1fbc 9270 fb3d 1b82 ab3d
000001e0: 8650 1abe 0449 13be 538a cdbd 0f8b 06be
000001f0: e5b3 243d 65a7 a03d bdde 35bb 7022 263e

fc2.bias f4 [4]
-0.052433882 0.17637193 -0.16615614 0.117442295
00000000: e9c4 56bd d89a 343e d624 2abe 9685 f03d
